app/src/main/assets/sep_model.tflite (tflite, 950308 bytes, 70 tensors)

functional_1/conv1d/BiasAdd/ReadVariableOp/resource f4 [8]
0	0xbefd9443	-0.49527177
1	0xbefce150	-0.4939065
2	0xbefbe91d	-0.4920129
3	0xbefb5a78	-0.4909246
4	0xbefb8174	-0.49122202
5	0xbefc395a	-0.49262506
6	0xbefcf89b	-0.4940842
7	0xbefcdf36	-0.49389046

functional_1/tf_op_layer_Mul_98/Mul_98/ReadVariableOp f4 [256]
0	0x3bc90f88	0.0061358847
1	0x3c96c9b6	0.01840673
2	0x3cfb49ba	0.030674804
3	0x3d2fe007	0.04293826
4	0x3d621469	0.055195246
5	0x3d8a200a	0.06744392
6	0x3da3308c	0.07968244
7	0x3dbc3ac3	0.091908954
8	0x3dd53db9	0.10412163
9	0x3dee3876	0.11631863
10	0x3e039502	0.1284981
11	0x3e1008b7	0.14065824
12	0x3e1c76de	0.15279719
13	0x3e28defc	0.16491312
14	0x3e354098	0.17700422
15	0x3e419b37	0.18906866
16	0x3e4dee60	0.20110464
17	0x3e5a3997	0.21311031
18	0x3e667c66	0.22508392
19	0x3e72b651	0.2370236
20	0x3e7ee6e1	0.24892761
21	0x3e8586ce	0.2607941
22	0x3e8b9507	0.27262136
23	0x3e919ddd	0.28440753
24	0x3e97a117	0.2961509
25	0x3e9d9e78	0.30784965
26	0x3ea395c5	0.31950203
27	0x3ea986c4	0.3311063
28	0x3eaf713a	0.34266073
29	0x3eb554ec	0.35416353
30	0x3ebb31a0	0.36561298
31	0x3ec1071e	0.37700742
32	0x3ec6d529	0.38834503
33	0x3ecc9b8b	0.3996242
34	0x3ed25a09	0.41084316
35	0x3ed8106b	0.42200026
36	0x3eddbe79	0.43309382
37	0x3ee363fa	0.44412214
38	0x3ee900b7	0.45508358
39	0x3eee9479	0.4659765
40	0x3ef41f07	0.47679922
41	0x3ef9a02d	0.48755017
42	0x3eff17b2	0.49822766
43	0x3f0242b1	0.50883013
44	0x3f04f484	0.519356
45	0x3f07a136	0.52980363
46	0x3f0a48ad	0.54017144
47	0x3f0cead0	0.55045795
48	0x3f0f8784	0.56066155
49	0x3f121eb0	0.57078075
50	0x3f14b039	0.58081394
51	0x3f173c07	0.5907597
52	0x3f19c200	0.60061646
53	0x3f1c420c	0.6103828
54	0x3f1ebc12	0.6200572
55	0x3f212ff9	0.62963825
56	0x3f239da9	0.63912445
57	0x3f26050a	0.6485144
58	0x3f286605	0.6578067
59	0x3f2ac082	0.66699994
60	0x3f2d1469	0.6760927
61	0x3f2f61a5	0.6850837
62	0x3f31a81d	0.69397146
63	0x3f33e7bc	0.70275474
64	0x3f36206c	0.7114322
65	0x3f385216	0.72000253
66	0x3f3a7ca4	0.72846437
67	0x3f3ca003	0.7368166
68	0x3f3ebc1b	0.74505776
69	0x3f40d0da	0.7531868
70	0x3f42de29	0.7612024
71	0x3f44e3f5	0.76910335
72	0x3f46e22a	0.7768885
73	0x3f48d8b3	0.78455657
74	0x3f4ac77f	0.79210657
75	0x3f4cae79	0.79953724
76	0x3f4e8d90	0.8068476
77	0x3f5064af	0.8140363
78	0x3f5233c6	0.8211025
79	0x3f53fac3	0.82804507
80	0x3f55b993	0.8348629
81	0x3f577026	0.841555
82	0x3f591e6a	0.84812033
83	0x3f5ac450	0.854558
84	0x3f5c61c7	0.86086696
85	0x3f5df6be	0.86704624
86	0x3f5f8327	0.873095
87	0x3f6106f2	0.8790122
88	0x3f628210	0.8847971
89	0x3f63f473	0.89044875
90	0x3f655e0b	0.89596623
91	0x3f66becc	0.9013488
92	0x3f6816a8	0.9065957
93	0x3f696591	0.91170603
94	0x3f6aab7b	0.9166791
95	0x3f6be858	0.92151403
96	0x3f6d1c1d	0.9262102
97	0x3f6e46be	0.93076694
98	0x3f6f6830	0.9351835
99	0x3f708066	0.9394592
100	0x3f718f57	0.94359344
101	0x3f7294f8	0.9475856
102	0x3f73913f	0.951435
103	0x3f748422	0.9551412
104	0x3f756d97	0.95870346
105	0x3f764d97	0.9621214
106	0x3f772417	0.96539444
107	0x3f77f110	0.9685221
108	0x3f78b47b	0.9715039
109	0x3f796e4e	0.97433937
110	0x3f7a1e84	0.97702813
111	0x3f7ac516	0.9795698
112	0x3f7b61fc	0.9819639
113	0x3f7bf531	0.9842101
114	0x3f7c7eb0	0.9863081
115	0x3f7cfe73	0.9882576
116	0x3f7d7474	0.9900582
117	0x3f7de0b1	0.99170977
118	0x3f7e4323	0.9932119
119	0x3f7e9bc9	0.9945646
120	0x3f7eea9d	0.9957674
121	0x3f7f2f9d	0.9968203
122	0x3f7f6ac7	0.99772304
123	0x3f7f9c18	0.99847555
124	0x3f7fc38f	0.99907774
125	0x3f7fe129	0.9995294
126	0x3f7ff4e6	0.9998306
127	0x3f7ffec4	0.99998116
128	0x3f7ffec4	0.99998116
129	0x3f7ff4e6	0.9998306
130	0x3f7fe129	0.9995294
131	0x3f7fc38f	0.99907774
132	0x3f7f9c18	0.99847555
133	0x3f7f6ac7	0.99772304
134	0x3f7f2f9d	0.9968203
135	0x3f7eea9d	0.9957674
136	0x3f7e9bc9	0.9945646
137	0x3f7e4323	0.9932119
138	0x3f7de0b1	0.99170977
139	0x3f7d7474	0.9900582
140	0x3f7cfe73	0.9882576
141	0x3f7c7eb0	0.9863081
142	0x3f7bf531	0.9842101
143	0x3f7b61fc	0.9819639
144	0x3f7ac516	0.9795698
145	0x3f7a1e84	0.97702813
146	0x3f796e4e	0.97433937
147	0x3f78b47b	0.9715039
148	0x3f77f110	0.9685221
149	0x3f772417	0.96539444
150	0x3f764d97	0.9621214
151	0x3f756d97	0.95870346
152	0x3f748422	0.9551412
153	0x3f73913f	0.951435
154	0x3f7294f8	0.9475856
155	0x3f718f57	0.94359344
156	0x3f708066	0.9394592
157	0x3f6f6830	0.9351835
158	0x3f6e46be	0.93076694
159	0x3f6d1c1d	0.9262102
160	0x3f6be858	0.92151403
161	0x3f6aab7b	0.9166791
162	0x3f696591	0.91170603
163	0x3f6816a8	0.9065957
164	0x3f66becc	0.9013488
165	0x3f655e0b	0.89596623
166	0x3f63f473	0.89044875
167	0x3f628210	0.8847971
168	0x3f6106f2	0.8790122
169	0x3f5f8327	0.873095
170	0x3f5df6be	0.86704624
171	0x3f5c61c7	0.86086696
172	0x3f5ac450	0.854558
173	0x3f591e6a	0.84812033
174	0x3f577026	0.841555
175	0x3f55b993	0.8348629
176	0x3f53fac3	0.82804507
177	0x3f5233c6	0.8211025
178	0x3f5064af	0.8140363
179	0x3f4e8d90	0.8068476
180	0x3f4cae79	0.79953724
181	0x3f4ac77f	0.79210657
182	0x3f48d8b3	0.78455657
183	0x3f46e22a	0.7768885
184	0x3f44e3f5	0.76910335
185	0x3f42de29	0.7612024
186	0x3f40d0da	0.7531868
187	0x3f3ebc1b	0.74505776
188	0x3f3ca003	0.7368166
189	0x3f3a7ca4	0.72846437
190	0x3f385216	0.72000253
191	0x3f36206c	0.7114322
192	0x3f33e7bc	0.70275474
193	0x3f31a81d	0.69397146
194	0x3f2f61a5	0.6850837
195	0x3f2d1469	0.6760927
196	0x3f2ac082	0.66699994
197	0x3f286605	0.6578067
198	0x3f26050a	0.6485144
199	0x3f239da9	0.63912445
200	0x3f212ff9	0.62963825
201	0x3f1ebc12	0.6200572
202	0x3f1c420c	0.6103828
203	0x3f19c200	0.60061646
204	0x3f173c07	0.5907597
205	0x3f14b039	0.58081394
206	0x3f121eb0	0.57078075
207	0x3f0f8784	0.56066155
208	0x3f0cead0	0.55045795
209	0x3f0a48ad	0.54017144
210	0x3f07a136	0.52980363
211	0x3f04f484	0.519356
212	0x3f0242b1	0.50883013
213	0x3eff17b2	0.49822766
214	0x3ef9a02d	0.48755017
215	0x3ef41f07	0.47679922
216	0x3eee9479	0.4659765
217	0x3ee900b7	0.45508358
218	0x3ee363fa	0.44412214
219	0x3eddbe79	0.43309382
220	0x3ed8106b	0.42200026
221	0x3ed25a09	0.41084316
222	0x3ecc9b8b	0.3996242
223	0x3ec6d529	0.38834503
224	0x3ec1071e	0.37700742
225	0x3ebb31a0	0.36561298
226	0x3eb554ec	0.35416353
227	0x3eaf713a	0.34266073
228	0x3ea986c4	0.3311063
229	0x3ea395c5	0.31950203
230	0x3e9d9e78	0.30784965
231	0x3e97a117	0.2961509
232	0x3e919ddd	0.28440753
233	0x3e8b9507	0.27262136
234	0x3e8586ce	0.2607941
235	0x3e7ee6e1	0.24892761
236	0x3e72b651	0.2370236
237	0x3e667c66	0.22508392
238	0x3e5a3997	0.21311031
239	0x3e4dee60	0.20110464
240	0x3e419b37	0.18906866
241	0x3e354098	0.17700422
242	0x3e28defc	0.16491312
243	0x3e1c76de	0.15279719
244	0x3e1008b7	0.14065824
245	0x3e039502	0.1284981
246	0x3dee3876	0.11631863
247	0x3dd53db9	0.10412163
248	0x3dbc3ac3	0.091908954
249	0x3da3308c	0.07968244
250	0x3d8a200a	0.06744392
251	0x3d621469	0.055195246
252	0x3d2fe007	0.04293826
253	0x3cfb49ba	0.030674804
254	0x3c96c9b6	0.01840673
255	0x3bc90f88	0.0061358847

functional_1/batch_normalization/batchnorm/mul f4 [18]
0	0x3f8dda56	1.1082256
1	0x4047a56a	3.119471
2	0x40859098	4.1739006
3	0x4014ad2b	2.3230693
4	0x3fab9ee3	1.3407863
5	0x3f97f015	1.1870142
6	0x406928a7	3.6431062
7	0x4033b7b3	2.808087
8	0x408fc31d	4.4925675
9	0x3fd9ac48	1.7005701
10	0x3ffcc209	1.9746715
11	0x3f9946c0	1.1974716
12	0x3fc8733f	1.566017
13	0x3fe87032	1.8159239
14	0x3f8795b3	1.059256
15	0x40752bc1	3.8307955
16	0x3f9c21b8	1.219779
17	0x3fda533c	1.7056651

functional_1/batch_normalization/batchnorm/sub f4 [18]
0	0x3ce367d0	0.027759463
1	0xbf9debb7	-1.233756
2	0xbf3ab409	-0.7293096
3	0x3e0f6244	0.14002329
4	0xbf0a0912	-0.5392009
5	0x3f09c35e	0.5381373
6	0xbec65bb0	-0.38741827
7	0xbe737330	-0.2377441
8	0xbf3a8958	-0.7286582
9	0xbf81857f	-1.0118865
10	0x3ee498b5	0.44647756
11	0x3f47928f	0.77958006
12	0xbf2dfeb8	-0.67966795
13	0xbe155471	-0.14582993
14	0x3f4c4d0a	0.7980505
15	0x3df54794	0.11976543
16	0xbe83f9e3	-0.25776586
17	0xbf4ad970	-0.79238033

functional_1/batch_normalization_1/batchnorm/mul f4 [30]
0	0x3f59ce69	0.8508058
1	0x3fa8f5f8	1.3200064
2	0x3fbb9d1d	1.4657322
3	0x3f610545	0.87898666
4	0x40d89b1f	6.7689357
5	0x400a405a	2.1601777
6	0x403b6461	2.9280016
7	0x3fbb9cfe	1.4657285
8	0x3f340b2f	0.70329565
9	0x3fe97596	1.8239009
10	0x3fe6f320	1.8042946
11	0x403c37f8	2.940916
12	0x3fec6d89	1.8470927
13	0x3f7755f7	0.96615547
14	0x40558b3b	3.336623
15	0x3fc8b9a0	1.5681648
16	0x3ffa69a9	1.9563495
17	0x3f8d213a	1.1025765
18	0x3f4f5c0c	0.8099983
19	0x3f617b72	0.8807899
20	0x400c49a8	2.1919956
21	0x3f067954	0.5252888
22	0x3f17dea9	0.5932413
23	0x3f8fa770	1.1222973
24	0x3f93c448	1.1544275
25	0x3f15291f	0.5826587
26	0x3ff0140a	1.8756115
27	0x3fdbc31f	1.7168921
28	0x3f72923e	0.947544
29	0x40610a81	3.516266

functional_1/batch_normalization_1/batchnorm/sub f4 [30]
0	0xbfd2c2ad	-1.646566
1	0xbeb61680	-0.3556404
2	0xbfde5698	-1.7370176
3	0x3e1b7c9c	0.15184253
4	0xbfecbfa1	-1.849598
5	0xbf527f96	-0.8222593
6	0x3ebb2881	0.3655434
7	0x3e899137	0.26868603
8	0x3f0f9f11	0.5610209
9	0xbfdcf3b1	-1.7261869
10	0x3fb5dc98	1.4207945
11	0xbe249fb3	-0.16076545
12	0xbfd34c49	-1.6507655
13	0xc03961aa	-2.896586
14	0xbf474c60	-0.77850914
15	0x3f58920e	0.8459786
16	0xbfdd1aa1	-1.7273751
17	0xbfa70bca	-1.3050473
18	0x3d62a1c0	0.055330038
19	0x3e64fe9a	0.22362748
20	0xbfe5aaaa	-1.7942708
21	0xc055befe	-3.3397822
22	0x4034cec4	2.82512
23	0x3f53c7ba	0.82726634
24	0x3de0f290	0.10983765
25	0xc03ad172	-2.9190335
26	0x3eb99db6	0.36253136
27	0xbfae8b3d	-1.3636242
28	0x3e9e69fa	0.3094023
29	0xbf287047	-0.6579632

functional_1/batch_normalization_10/batchnorm/mul f4 [30]
0	0x3f9b05de	1.2111166
1	0x40265874	2.5991488
2	0x3fd99f39	1.7001716
3	0x40978bb0	4.7358017
4	0x4037f8aa	2.8745522
5	0x3f74711d	0.954851
6	0x4048ebf0	3.1394005
7	0x3fb65438	1.4244452
8	0x3fb29ead	1.3954674
9	0x400490b5	2.0713322
10	0x4081a6f1	4.0516286
11	0x406014d7	3.501272
12	0x4015e403	2.3420417
13	0x3f963b01	1.1736757
14	0x400f27d8	2.2368069
15	0x3f9a1059	1.2036239
16	0x3f7e1322	0.99247944
17	0x3f453c48	0.77045107
18	0x3ff0d7f6	1.8815906
19	0x40813595	4.037791
20	0x3fae48ea	1.3616002
21	0x3fc0a602	1.5050662
22	0x3fb76ce5	1.4330107
23	0x3f99fcd2	1.203028
24	0x3fa29c0d	1.2703873
25	0x400e52df	2.223808
26	0x400cfc4e	2.2028995
27	0x3f5a3389	0.85234886
28	0x3fbc215e	1.4697683
29	0x3fede786	1.858628

functional_1/batch_normalization_10/batchnorm/sub f4 [30]
0	0xbf9617a4	-1.1725965
1	0xbed4fe59	-0.41600302
2	0x3ef01db2	0.46897656
3	0xbf7b0d22	-0.98066914
4	0xbe46da06	-0.19419107
5	0xc0101506	-2.2512832
6	0xbd2b0888	-0.041756183
7	0xc072e2c8	-3.7950916
8	0xbffe8b0b	-1.9886183
9	0x3e9f4ea2	0.3111468
10	0xbf3e1a73	-0.7425911
11	0x3e3be72a	0.18349901
12	0x3e520f84	0.20513731
13	0x3f1b1445	0.60577804
14	0x3edef31b	0.4354485
15	0xbf746518	-0.95466757
16	0x3dd892a0	0.105748415
17	0xc022c472	-2.54324
18	0xbd829114	-0.06375328
19	0xbf491e2b	-0.7856166
20	0xbfa5ca62	-1.2952387
21	0xbf926d89	-1.1439677
22	0xc03371e0	-2.8038254
23	0x3e92aaca	0.28645927
24	0xbf941666	-1.1569335
25	0xbf3d9792	-0.740594
26	0x3f61cc5c	0.8820245
27	0xbf9a6121	-1.2060891
28	0xbe169652	-0.1470578
29	0xbf13459e	-0.575281

functional_1/batch_normalization_11/batchnorm/mul f4 [8]
0	0x3f0417b0	0.51598644
1	0x3e9b496b	0.3032945
2	0x3eab5af0	0.33467817
3	0x3f0aba3b	0.54190415
4	0x3f27764d	0.6541489
5	0x3f0e1051	0.55493647
6	0x3f148fa4	0.5803168
7	0x3ef5d056	0.4801051

functional_1/batch_normalization_11/batchnorm/sub f4 [8]
0	0xbfac0c72	-1.3441298
1	0xbf9e3134	-1.2358766
2	0xbf8ddf79	-1.1083823
3	0xc02085bc	-2.5081625
4	0xbfffef8e	-1.9994981
5	0xbf5282fb	-0.8223111
6	0x3d850ef8	0.06496996
7	0xc030a86a	-2.7602792

functional_1/batch_normalization_12/batchnorm/mul f4 [18]
0	0x3f69f0af	0.9138288
1	0x3f816641	1.010933
2	0x3feceb61	1.8509332
3	0x3fa92e3a	1.3217232
4	0x3f7a2157	0.9770712
5	0x3fa36de7	1.2767915
6	0x3f3e51f4	0.743438
7	0x3fad42f2	1.3536055
8	0x3f7a7726	0.97838056
9	0x3fa9b3ed	1.3258034
10	0x3f8cd8ab	1.1003622
11	0x3f8a9753	1.082743
12	0x3f42f439	0.76153904
13	0x3fc0b7c3	1.505608
14	0x3f74adbc	0.955776
15	0x4000ddf5	2.0135472
16	0x3fac6bce	1.3470399
17	0x3f922335	1.1416994

functional_1/batch_normalization_12/batchnorm/sub f4 [18]
0	0xbfd806d4	-1.6877084
1	0xbf4593a1	-0.7717839
2	0xbf83e5de	-1.0304525
3	0xbf9d0daf	-1.2269801
4	0xc011f825	-2.2807705
5	0xbeea15ce	-0.4571976
6	0xbfae1a83	-1.3601841
7	0xbe104f48	-0.14092743
8	0xc025860d	-2.5863068
9	0xbf6b33f0	-0.91876125
10	0xbefe7ccd	-0.4970459
11	0xbfae9f22	-1.3642313
12	0xbf861dc9	-1.047784
13	0xbf0ed998	-0.5580077
14	0x3cd838a0	0.026394188
15	0xbe7b49c8	-0.24539864
16	0xbf2c29cc	-0.67251277
17	0xbf9ba0a7	-1.2158402

functional_1/batch_normalization_13/batchnorm/mul f4 [30]
0	0x3fd99d92	1.7001212
1	0x3fb44981	1.4084932
2	0x40662e7b	3.596587
3	0x3fcefcff	1.6170958
4	0x3f81d9ec	1.014463
5	0x3f5c973d	0.8616827
6	0x4048a2f2	3.1349454
7	0x3fdb2ee1	1.7123681
8	0x3fa6f47b	1.304336
9	0x4003bb00	2.0582886
10	0x3fc4562b	1.5338796
11	0x402c159a	2.6888185
12	0x3fd05b01	1.6277772
13	0x404c97b6	3.1967597
14	0x3fc14ef1	1.5102216
15	0x3fe280cb	1.7695554
16	0x3ef68912	0.4815145
17	0x4005d49b	2.0911014
18	0x3f93deef	1.1552409
19	0x3f958e72	1.1684096
20	0x4000e8e7	2.0142152
21	0x3f8f4aac	1.1194663
22	0x3f7aedd8	0.9801917
23	0x4001220a	2.0177026
24	0x40034d74	2.0516024
25	0x407cff5c	3.953086
26	0x3fae2e83	1.3607944
27	0x4001010b	2.0156887
28	0x3f70ac2e	0.94012725
29	0x407d008e	3.9531589

functional_1/batch_normalization_13/batchnorm/sub f4 [30]
0	0x3cbc0bc0	0.022954822
1	0x3f97f493	1.1871513
2	0xbf0aef38	-0.5427127
3	0x3e587598	0.21138608
4	0xbfecdb7c	-1.8504481
5	0xbfb3d800	-1.4050293
6	0x3ed3b1cc	0.41346586
7	0x3f417bcf	0.7557954
8	0xbfd091e3	-1.6294521
9	0xbf2d403a	-0.67676127
10	0x3ec5adac	0.38609064
11	0x3f5e794e	0.86903846
12	0xbeb948d8	-0.36188388
13	0x3ee0207e	0.4377479
14	0x3cae1e60	0.021254718
15	0xbfa7964e	-1.3092744
16	0x404e539b	3.2238529
17	0xbf216241	-0.6304055
18	0xbf606725	-0.87657386
19	0xbfb1276f	-1.3840159
20	0xbfdac1c9	-1.7090389
21	0xc02597b7	-2.587385
22	0xc050f9e9	-3.2652533
23	0xbe49256e	-0.19643185
24	0xc020c943	-2.512284
25	0x3dc3481e	0.0953524
26	0xbfd142aa	-1.6348469
27	0x3ec313f6	0.38101166
28	0xbe0d32cc	-0.13788909
29	0x3ecbf3e4	0.3983451

functional_1/batch_normalization_14/batchnorm/mul f4 [8]
0	0x3e035049	0.12823595
1	0x3e0bb110	0.13641763
2	0x3de4a4f4	0.11164275
3	0x3e188b36	0.14896855
4	0x3e1b2cc3	0.15153794
5	0x3d81c1a7	0.063357644
6	0x3e04fbb2	0.12986639
7	0x3dfb1554	0.122599274

functional_1/batch_normalization_14/batchnorm/sub f4 [8]
0	0xbf968eb6	-1.1762302
1	0xbfb7e742	-1.4367449
2	0xbe19d736	-0.15023503
3	0xbfb87c57	-1.4412946
4	0xbca5b304	-0.020226963
5	0xbf0cd312	-0.5500957
6	0xbf9e00c2	-1.2343981
7	0xbf972293	-1.1807426

functional_1/batch_normalization_2/batchnorm/mul f4 [8]
0	0x3eaa33ee	0.33242744
1	0x3f393d8a	0.72359526
2	0x3f271a07	0.6527409
3	0x3eb96997	0.3621337
4	0x3f03657c	0.5132673
5	0x3ec73d94	0.38914168
6	0x3e5f8baf	0.21830629
7	0x3edffd1a	0.4374779

functional_1/batch_normalization_2/batchnorm/sub f4 [8]
0	0xbf09d196	-0.5383543
1	0xbfe2d32a	-1.7720692
2	0xbb9d1240	-0.0047934353
3	0x3f2107de	0.6290263
4	0xc02ba9b3	-2.6822326
5	0xc006f5d6	-2.1087546
6	0x3f56c0a8	0.8388772
7	0xc0087550	-2.1321602

functional_1/batch_normalization_3/batchnorm/mul f4 [18]
0	0x402c5afe	2.6930537
1	0x3f9fcdf4	1.2484727
2	0x3f75c087	0.959969
3	0x401b7140	2.4287872
4	0x3fc1d2d3	1.5142463
5	0x3f9bcfcc	1.217279
6	0x3f97a98d	1.1848618
7	0x3fa8d72c	1.3190665
8	0x3fb4d826	1.4128463
9	0x40060011	2.093754
10	0x3fc03595	1.5016352
11	0x3fc32494	1.5245538
12	0x3f960a05	1.1721808
13	0x4005caad	2.0904953
14	0x3fb9a2f9	1.450286
15	0x3f6772d2	0.90409577
16	0x3f831289	1.0240031
17	0x3fda71fd	1.7066036

functional_1/batch_normalization_3/batchnorm/sub f4 [18]
0	0xbdec0454	-0.11524263
1	0xbeb25b9c	-0.34835517
2	0xbfa0ff3f	-1.2577895
3	0xbfe61a10	-1.7976704
4	0xbfb192ee	-1.3872964
5	0xc01f5fec	-2.4902296
6	0xbf3a464a	-0.727635
7	0xbfd093c6	-1.6295097
8	0xbedf14c0	-0.43570518
9	0xc0273046	-2.6123214
10	0xbf8ebbf2	-1.1151106
11	0xbfa697b3	-1.3015045
12	0xbf741d0b	-0.95356816
13	0xbda9cdc0	-0.08291197
14	0xc005f314	-2.0929613
15	0x3eb744a0	0.35794544
16	0xbf3bad61	-0.7331143
17	0xbcf9b0e0	-0.030479848

functional_1/batch_normalization_4/batchnorm/mul f4 [30]
0	0x4043c20a	3.0587182
1	0x3fe9f6da	1.8278458
2	0x400b1fc1	2.173813
3	0x3f96f1a5	1.1792494
4	0x403ed18e	2.9815402
5	0x4004b388	2.0734577
6	0x3fd7ea7a	1.6868432
7	0x3fa7b29c	1.3101382
8	0x40a56227	5.1682315
9	0x3f984cb9	1.1898414
10	0x400f842a	2.2424417
11	0x3fd9053d	1.6954724
12	0x3fe2b746	1.7712181
13	0x3fbdeed2	1.4838507
14	0x413ae3b3	11.680591
15	0x404ec2f0	3.230648
16	0x40a60e12	5.1892176
17	0x407c6ae3	3.9440238
18	0x404bf34c	3.1867247
19	0x4039166a	2.891993
20	0x4039d6ca	2.9037347
21	0x3ff8265d	1.9386708
22	0x408f3e99	4.4763913
23	0x402093dd	2.5090249
24	0x3fe70c09	1.8050548
25	0x400566ae	2.084392
26	0x3f860142	1.0469134
27	0x4063a41c	3.5568914
28	0x3f7b0f49	0.980702
29	0x406ad585	3.6692822

functional_1/batch_normalization_4/batchnorm/sub f4 [30]
0	0x3e988dd6	0.29795712
1	0xbf8806c2	-1.0627062
2	0xbe34d330	-0.17658687
3	0xbee4d974	-0.44697154
4	0x3cb24c78	0.021764979
5	0x3ef30dea	0.47471553
6	0xbf55ec75	-0.8356393
7	0xc000bc78	-2.0115032
8	0xbf56b9bc	-0.8387716
9	0x3e9c1c12	0.30490166
10	0xbff7e8f9	-1.9367973
11	0xc02b798f	-2.6792943
12	0xc0481180	-3.126068
13	0xbe18a1a6	-0.14905414
14	0x3b104440	0.0022013336
15	0xbf1ef524	-0.62092805
16	0xbbabd400	-0.005243778
17	0x3e8e3cb6	0.27780694
18	0xbf89eb25	-1.0774885
19	0x3eb132f3	0.34609184
20	0x3de5bcec	0.112176746
21	0xbf1536b7	-0.58286613
22	0x3ebe4bc5	0.37167183
23	0xbf037d07	-0.5136265
24	0xbd0d6f48	-0.034529954
25	0xbfd75121	-1.6821634
26	0x3e9f1594	0.3107115
27	0xbcc23d40	-0.023710847
28	0x3f81e0ae	1.0146692
29	0x3f845be4	1.0340543

functional_1/batch_normalization_5/batchnorm/mul f4 [8]
0	0x3f21918d	0.6311272
1	0x3f14ce13	0.58126944
2	0x3f19efb7	0.601314
3	0x3f38e30f	0.72221464
4	0x3f0223db	0.5083596
5	0x3f10a235	0.5649751
6	0x3e9c1d82	0.30491263
7	0x3f2cef71	0.6755286

functional_1/batch_normalization_5/batchnorm/sub f4 [8]
0	0xc06cf2b8	-3.7023144
1	0xc061dc13	-3.5290573
2	0xc033b0a3	-2.807656
3	0xbe02a39a	-0.12757722
4	0xbf3eccf8	-0.7453151
5	0xbf32e9c2	-0.69887936
6	0xbe311b28	-0.17295516
7	0xbfcb8011	-1.5898458

functional_1/batch_normalization_6/batchnorm/mul f4 [18]
0	0x3f5f2a4f	0.8717393
1	0x3fb1811f	1.386753
2	0x3f8f105e	1.117687
3	0x3f9a904b	1.2075285
4	0x3faede60	1.3661613
5	0x3f721e38	0.9457736
6	0x4001f1b7	2.030378
7	0x3f990f24	1.1957746
8	0x3f6c961a	0.92416537
9	0x3ff36b9c	1.9017215
10	0x3fb3160f	1.3991107
11	0x3f6405a9	0.89071137
12	0x3faf961d	1.3717686
13	0x3f815e7a	1.0106957
14	0x3fdca8d8	1.7239027
15	0x3f960fa0	1.1723518
16	0x3f942c1e	1.1575963
17	0x40189ba0	2.3844986

functional_1/batch_normalization_6/batchnorm/sub f4 [18]
0	0xbf1f7cb1	-0.6229964
1	0xbecfa224	-0.4055339
2	0xbfab0fdd	-1.3364216
3	0xbf35bff3	-0.70996016
4	0xbf14b2ac	-0.5808513
5	0xc002c29b	-2.0431278
6	0x3e83127d	0.25600043
7	0x3e849cdf	0.25900933
8	0xbf953245	-1.1655966
9	0xbf156709	-0.58360344
10	0xbf1d6f6d	-0.6149815
11	0xbfee01ad	-1.8594261
12	0xbf9f0842	-1.2424395
13	0xbf8bb682	-1.0915072
14	0xbf67d59c	-0.9056032
15	0xbf152392	-0.582574
16	0xc01be0ec	-2.4356031
17	0xbf51b514	-0.8191693

functional_1/batch_normalization_7/batchnorm/mul f4 [30]
0	0x3fc201ac	1.515676
1	0x3fccce54	1.6000466
2	0x40215880	2.5210266
3	0x3fd33c00	1.6502686
4	0x3ff8d964	1.9441342
5	0x3f79394c	0.97353053
6	0x3f88642f	1.0655574
7	0x405f81ea	3.4923043
8	0x3fdf99fc	1.7468867
9	0x3fae2f9d	1.360828
10	0x40120b84	2.2819529
11	0x4031500e	2.7705112
12	0x3f45d731	0.7728148
13	0x3f8c9b85	1.0984961
14	0x3fbece6b	1.4906744
15	0x3ff3c4d2	1.904444
16	0x3fb20e7f	1.3910674
17	0x3f93a2e7	1.1534089
18	0x3fda508c	1.7055831
19	0x3f9a3e7a	1.2050316
20	0x3fa6444a	1.298959
21	0x3fe72215	1.8057276
22	0x3fce81cc	1.6133361
23	0x40099e7d	2.1502984
24	0x3fb3f884	1.4060216
25	0x3fd6aa05	1.6770636
26	0x3fa08588	1.254075
27	0x3f9d8847	1.2307214
28	0x3f2d7ea0	0.6777134
29	0x3f9c5d47	1.2215966

functional_1/batch_normalization_7/batchnorm/sub f4 [30]
0	0xc00b1da0	-2.1736832
1	0x3e67d0dc	0.22638267
2	0xbe8a109c	-0.26965797
3	0xc01ffdcb	-2.4998653
4	0x3eea5661	0.45769027
5	0xc02b8ea8	-2.680582
6	0xbf885f7c	-1.065414
7	0x3e19f5e4	0.15035206
8	0xc014dc5e	-2.3259501
9	0xbee7a5b3	-0.45243606
10	0xbf3bce56	-0.7336172
11	0xbf52d713	-0.8235943
12	0x3f88a72c	1.0676017
13	0xbca368b0	-0.01994738
14	0xbf8a24db	-1.0792497
15	0xbf9a1269	-1.2036868
16	0xbfbbd286	-1.4673622
17	0xbcf78040	-0.030212522
18	0xbf7c90ce	-0.98658454
19	0xbed19976	-0.40937394
20	0xbfaf99bc	-1.3718791
21	0xbfb6fe18	-1.4296293
22	0xbfa1a6bf	-1.2629012
23	0xbef7d109	-0.4840167
24	0xbfe22f2c	-1.7670646
25	0xbe2e943c	-0.17048734
26	0x3fdd06c2	1.7267687
27	0x3e984f32	0.2974792
28	0x3ee37be8	0.4443047
29	0xbe9e8a4a	-0.3096488

functional_1/batch_normalization_8/batchnorm/mul f4 [8]
0	0x3f6039d1	0.8758822
1	0x3ec025a5	0.3752872
2	0x3f9275ee	1.1442239
3	0x3ec5de54	0.38646185
4	0x3f0c7166	0.5486053
5	0x3fb553a6	1.4166152
6	0x3eb47b76	0.35250443
7	0x3f1b33d9	0.6062599

functional_1/batch_normalization_8/batchnorm/sub f4 [8]
0	0xbf8e35ce	-1.111017
1	0xbfecbcd6	-1.8495128
2	0xbed0dd5e	-0.4079389
3	0xbf55c268	-0.83499765
4	0xc0118ace	-2.274097
5	0xbf1c57ea	-0.61071646
6	0xbea36e1c	-0.31919944
7	0xbfe95e4c	-1.8231902

functional_1/batch_normalization_9/batchnorm/mul f4 [18]
0	0x3ffe8807	1.9885262
1	0x3f6d6159	0.92726666
2	0x402bf6d9	2.6869414
3	0x3f68675a	0.907827
4	0x3f9f687d	1.2453762
5	0x3fa98354	1.3243203
6	0x4010671d	2.2562935
7	0x3f70ca28	0.94058466
8	0x3fb0a754	1.3801064
9	0x3ff25398	1.8931761
10	0x40046094	2.0683947
11	0x3fdd2a8e	1.7278612
12	0x3fe168f0	1.7610149
13	0x3f5de8ee	0.8668355
14	0x3f771b1a	0.9652573
15	0x401f52cc	2.4894285
16	0x3ff36d5b	1.9017748
17	0x3f8708b1	1.0549527

functional_1/batch_normalization_9/batchnorm/sub f4 [18]
0	0xbfa528c8	-1.290307
1	0xbfc69673	-1.5514663
2	0xbef11d5e	-0.47092718
3	0xc0148665	-2.3207028
4	0xc04a7f1c	-3.1640081
5	0xbf4be3be	-0.7964438
6	0xbfac7f62	-1.3476374
7	0xbed336ac	-0.4125265
8	0x3e6aabca	0.22917095
9	0xbf6c7c48	-0.9237714
10	0xbe7c7614	-0.24654418
11	0xbec8ce80	-0.39220047
12	0x3e9da3e6	0.30789107
13	0xbf72c44c	-0.94830775
14	0xbf6d3c8e	-0.92670524
15	0xbf6a36eb	-0.9149005
16	0x3e114bcc	0.1418907
17	0xbfba4f64	-1.4555478

functional_1/tf_op_layer_BatchMatMulV2_14/BatchMatMulV2_14 f4 [129, 256]
0	0x3f800000	1.0
1	0x3f800000	1.0
2	0x3f800000	1.0
3	0x3f800000	1.0
4	0x3f800000	1.0
5	0x3f800000	1.0
6	0x3f800000	1.0
7	0x3f800000	1.0
8	0x3f800000	1.0
9	0x3f800000	1.0
10	0x3f800000	1.0
11	0x3f800000	1.0
12	0x3f800000	1.0
13	0x3f800000	1.0
14	0x3f800000	1.0
15	0x3f800000	1.0
16	0x3f800000	1.0
17	0x3f800000	1.0
18	0x3f800000	1.0
19	0x3f800000	1.0
20	0x3f800000	1.0
21	0x3f800000	1.0
22	0x3f800000	1.0
23	0x3f800000	1.0
24	0x3f800000	1.0
25	0x3f800000	1.0
26	0x3f800000	1.0
27	0x3f800000	1.0
28	0x3f800000	1.0
29	0x3f800000	1.0
30	0x3f800000	1.0
31	0x3f800000	1.0
32	0x3f800000	1.0
33	0x3f800000	1.0
34	0x3f800000	1.0
35	0x3f800000	1.0
36	0x3f800000	1.0
37	0x3f800000	1.0
38	0x3f800000	1.0
39	0x3f800000	1.0
40	0x3f800000	1.0
41	0x3f800000	1.0
42	0x3f800000	1.0
43	0x3f800000	1.0
44	0x3f800000	1.0
45	0x3f800000	1.0
46	0x3f800000	1.0
47	0x3f800000	1.0
48	0x3f800000	1.0
49	0x3f800000	1.0
50	0x3f800000	1.0
51	0x3f800000	1.0
52	0x3f800000	1.0
53	0x3f800000	1.0
54	0x3f800000	1.0
55	0x3f800000	1.0
56	0x3f800000	1.0
57	0x3f800000	1.0
58	0x3f800000	1.0
59	0x3f800000	1.0
60	0x3f800000	1.0
61	0x3f800000	1.0
62	0x3f800000	1.0
63	0x3f800000	1.0
64	0x3f800000	1.0
65	0x3f800000	1.0
66	0x3f800000	1.0
67	0x3f800000	1.0
68	0x3f800000	1.0
69	0x3f800000	1.0
70	0x3f800000	1.0
71	0x3f800000	1.0
72	0x3f800000	1.0
73	0x3f800000	1.0
74	0x3f800000	1.0
75	0x3f800000	1.0
76	0x3f800000	1.0
77	0x3f800000	1.0
78	0x3f800000	1.0
79	0x3f800000	1.0
80	0x3f800000	1.0
81	0x3f800000	1.0
82	0x3f800000	1.0
83	0x3f800000	1.0
84	0x3f800000	1.0
85	0x3f800000	1.0
86	0x3f800000	1.0
87	0x3f800000	1.0
88	0x3f800000	1.0
89	0x3f800000	1.0
90	0x3f800000	1.0
91	0x3f800000	1.0
92	0x3f800000	1.0
93	0x3f800000	1.0
94	0x3f800000	1.0
95	0x3f800000	1.0
96	0x3f800000	1.0
97	0x3f800000	1.0
98	0x3f800000	1.0
99	0x3f800000	1.0
100	0x3f800000	1.0
101	0x3f800000	1.0
102	0x3f800000	1.0
103	0x3f800000	1.0
104	0x3f800000	1.0
105	0x3f800000	1.0
106	0x3f800000	1.0
107	0x3f800000	1.0
108	0x3f800000	1.0
109	0x3f800000	1.0
110	0x3f800000	1.0
111	0x3f800000	1.0
112	0x3f800000	1.0
113	0x3f800000	1.0
114	0x3f800000	1.0
115	0x3f800000	1.0
116	0x3f800000	1.0
117	0x3f800000	1.0
118	0x3f800000	1.0
119	0x3f800000	1.0
120	0x3f800000	1.0
121	0x3f800000	1.0
122	0x3f800000	1.0
123	0x3f800000	1.0
124	0x3f800000	1.0
125	0x3f800000	1.0
126	0x3f800000	1.0
127	0x3f800000	1.0
128	0x3f800000	1.0
129	0x3f800000	1.0
130	0x3f800000	1.0
131	0x3f800000	1.0
132	0x3f800000	1.0
133	0x3f800000	1.0
134	0x3f800000	1.0
135	0x3f800000	1.0
136	0x3f800000	1.0
137	0x3f800000	1.0
138	0x3f800000	1.0
139	0x3f800000	1.0
140	0x3f800000	1.0
141	0x3f800000	1.0
142	0x3f800000	1.0
143	0x3f800000	1.0
144	0x3f800000	1.0
145	0x3f800000	1.0
146	0x3f800000	1.0
147	0x3f800000	1.0
148	0x3f800000	1.0
149	0x3f800000	1.0
150	0x3f800000	1.0
151	0x3f800000	1.0
152	0x3f800000	1.0
153	0x3f800000	1.0
154	0x3f800000	1.0
155	0x3f800000	1.0
156	0x3f800000	1.0
157	0x3f800000	1.0
158	0x3f800000	1.0
159	0x3f800000	1.0
160	0x3f800000	1.0
161	0x3f800000	1.0
162	0x3f800000	1.0
163	0x3f800000	1.0
164	0x3f800000	1.0
165	0x3f800000	1.0
166	0x3f800000	1.0
167	0x3f800000	1.0
168	0x3f800000	1.0
169	0x3f800000	1.0
170	0x3f800000	1.0
171	0x3f800000	1.0
172	0x3f800000	1.0
173	0x3f800000	1.0
174	0x3f800000	1.0
175	0x3f800000	1.0
176	0x3f800000	1.0
177	0x3f800000	1.0
178	0x3f800000	1.0
179	0x3f800000	1.0
180	0x3f800000	1.0
181	0x3f800000	1.0
182	0x3f800000	1.0
183	0x3f800000	1.0
184	0x3f800000	1.0
185	0x3f800000	1.0
186	0x3f800000	1.0
187	0x3f800000	1.0
188	0x3f800000	1.0
189	0x3f800000	1.0
190	0x3f800000	1.0
191	0x3f800000	1.0
192	0x3f800000	1.0
193	0x3f800000	1.0
194	0x3f800000	1.0
195	0x3f800000	1.0
196	0x3f800000	1.0
197	0x3f800000	1.0
198	0x3f800000	1.0
199	0x3f800000	1.0
200	0x3f800000	1.0
201	0x3f800000	1.0
202	0x3f800000	1.0
203	0x3f800000	1.0
204	0x3f800000	1.0
205	0x3f800000	1.0
206	0x3f800000	1.0
207	0x3f800000	1.0
208	0x3f800000	1.0
209	0x3f800000	1.0
210	0x3f800000	1.0
211	0x3f800000	1.0
212	0x3f800000	1.0
213	0x3f800000	1.0
214	0x3f800000	1.0
215	0x3f800000	1.0
216	0x3f800000	1.0
217	0x3f800000	1.0
218	0x3f800000	1.0
219	0x3f800000	1.0
220	0x3f800000	1.0
221	0x3f800000	1.0
222	0x3f800000	1.0
223	0x3f800000	1.0
224	0x3f800000	1.0
225	0x3f800000	1.0
226	0x3f800000	1.0
227	0x3f800000	1.0
228	0x3f800000	1.0
229	0x3f800000	1.0
230	0x3f800000	1.0
231	0x3f800000	1.0
232	0x3f800000	1.0
233	0x3f800000	1.0
234	0x3f800000	1.0
235	0x3f800000	1.0
236	0x3f800000	1.0
237	0x3f800000	1.0
238	0x3f800000	1.0
239	0x3f800000	1.0
240	0x3f800000	1.0
241	0x3f800000	1.0
242	0x3f800000	1.0
243	0x3f800000	1.0
244	0x3f800000	1.0
245	0x3f800000	1.0
246	0x3f800000	1.0
247	0x3f800000	1.0
248	0x3f800000	1.0
249	0x3f800000	1.0
250	0x3f800000	1.0
251	0x3f800000	1.0
252	0x3f800000	1.0
253	0x3f800000	1.0
254	0x3f800000	1.0
255	0x3f800000	1.0

functional_1/tf_op_layer_BatchMatMulV2_15/BatchMatMulV2_15 f4 [129, 256]
0	0x00000000	0.0
1	0x00000000	0.0
2	0x00000000	0.0
3	0x00000000	0.0
4	0x00000000	0.0
5	0x00000000	0.0
6	0x00000000	0.0
7	0x00000000	0.0
8	0x00000000	0.0
9	0x00000000	0.0
10	0x00000000	0.0
11	0x00000000	0.0
12	0x00000000	0.0
13	0x00000000	0.0
14	0x00000000	0.0
15	0x00000000	0.0
16	0x00000000	0.0
17	0x00000000	0.0
18	0x00000000	0.0
19	0x00000000	0.0
20	0x00000000	0.0
21	0x00000000	0.0
22	0x00000000	0.0
23	0x00000000	0.0
24	0x00000000	0.0
25	0x00000000	0.0
26	0x00000000	0.0
27	0x00000000	0.0
28	0x00000000	0.0
29	0x00000000	0.0
30	0x00000000	0.0
31	0x00000000	0.0
32	0x00000000	0.0
33	0x00000000	0.0
34	0x00000000	0.0
35	0x00000000	0.0
36	0x00000000	0.0
37	0x00000000	0.0
38	0x00000000	0.0
39	0x00000000	0.0
40	0x00000000	0.0
41	0x00000000	0.0
42	0x00000000	0.0
43	0x00000000	0.0
44	0x00000000	0.0
45	0x00000000	0.0
46	0x00000000	0.0
47	0x00000000	0.0
48	0x00000000	0.0
49	0x00000000	0.0
50	0x00000000	0.0
51	0x00000000	0.0
52	0x00000000	0.0
53	0x00000000	0.0
54	0x00000000	0.0
55	0x00000000	0.0
56	0x00000000	0.0
57	0x00000000	0.0
58	0x00000000	0.0
59	0x00000000	0.0
60	0x00000000	0.0
61	0x00000000	0.0
62	0x00000000	0.0
63	0x00000000	0.0
64	0x00000000	0.0
65	0x00000000	0.0
66	0x00000000	0.0
67	0x00000000	0.0
68	0x00000000	0.0
69	0x00000000	0.0
70	0x00000000	0.0
71	0x00000000	0.0
72	0x00000000	0.0
73	0x00000000	0.0
74	0x00000000	0.0
75	0x00000000	0.0
76	0x00000000	0.0
77	0x00000000	0.0
78	0x00000000	0.0
79	0x00000000	0.0
80	0x00000000	0.0
81	0x00000000	0.0
82	0x00000000	0.0
83	0x00000000	0.0
84	0x00000000	0.0
85	0x00000000	0.0
86	0x00000000	0.0
87	0x00000000	0.0
88	0x00000000	0.0
89	0x00000000	0.0
90	0x00000000	0.0
91	0x00000000	0.0
92	0x00000000	0.0
93	0x00000000	0.0
94	0x00000000	0.0
95	0x00000000	0.0
96	0x00000000	0.0
97	0x00000000	0.0
98	0x00000000	0.0
99	0x00000000	0.0
100	0x00000000	0.0
101	0x00000000	0.0
102	0x00000000	0.0
103	0x00000000	0.0
104	0x00000000	0.0
105	0x00000000	0.0
106	0x00000000	0.0
107	0x00000000	0.0
108	0x00000000	0.0
109	0x00000000	0.0
110	0x00000000	0.0
111	0x00000000	0.0
112	0x00000000	0.0
113	0x00000000	0.0
114	0x00000000	0.0
115	0x00000000	0.0
116	0x00000000	0.0
117	0x00000000	0.0
118	0x00000000	0.0
119	0x00000000	0.0
120	0x00000000	0.0
121	0x00000000	0.0
122	0x00000000	0.0
123	0x00000000	0.0
124	0x00000000	0.0
125	0x00000000	0.0
126	0x00000000	0.0
127	0x00000000	0.0
128	0x00000000	0.0
129	0x00000000	0.0
130	0x00000000	0.0
131	0x00000000	0.0
132	0x00000000	0.0
133	0x00000000	0.0
134	0x00000000	0.0
135	0x00000000	0.0
136	0x00000000	0.0
137	0x00000000	0.0
138	0x00000000	0.0
139	0x00000000	0.0
140	0x00000000	0.0
141	0x00000000	0.0
142	0x00000000	0.0
143	0x00000000	0.0
144	0x00000000	0.0
145	0x00000000	0.0
146	0x00000000	0.0
147	0x00000000	0.0
148	0x00000000	0.0
149	0x00000000	0.0
150	0x00000000	0.0
151	0x00000000	0.0
152	0x00000000	0.0
153	0x00000000	0.0
154	0x00000000	0.0
155	0x00000000	0.0
156	0x00000000	0.0
157	0x00000000	0.0
158	0x00000000	0.0
159	0x00000000	0.0
160	0x00000000	0.0
161	0x00000000	0.0
162	0x00000000	0.0
163	0x00000000	0.0
164	0x00000000	0.0
165	0x00000000	0.0
166	0x00000000	0.0
167	0x00000000	0.0
168	0x00000000	0.0
169	0x00000000	0.0
170	0x00000000	0.0
171	0x00000000	0.0
172	0x00000000	0.0
173	0x00000000	0.0
174	0x00000000	0.0
175	0x00000000	0.0
176	0x00000000	0.0
177	0x00000000	0.0
178	0x00000000	0.0
179	0x00000000	0.0
180	0x00000000	0.0
181	0x00000000	0.0
182	0x00000000	0.0
183	0x00000000	0.0
184	0x00000000	0.0
185	0x00000000	0.0
186	0x00000000	0.0
187	0x00000000	0.0
188	0x00000000	0.0
189	0x00000000	0.0
190	0x00000000	0.0
191	0x00000000	0.0
192	0x00000000	0.0
193	0x00000000	0.0
194	0x00000000	0.0
195	0x00000000	0.0
196	0x00000000	0.0
197	0x00000000	0.0
198	0x00000000	0.0
199	0x00000000	0.0
200	0x00000000	0.0
201	0x00000000	0.0
202	0x00000000	0.0
203	0x00000000	0.0
204	0x00000000	0.0
205	0x00000000	0.0
206	0x00000000	0.0
207	0x00000000	0.0
208	0x00000000	0.0
209	0x00000000	0.0
210	0x00000000	0.0
211	0x00000000	0.0
212	0x00000000	0.0
213	0x00000000	0.0
214	0x00000000	0.0
215	0x00000000	0.0
216	0x00000000	0.0
217	0x00000000	0.0
218	0x00000000	0.0
219	0x00000000	0.0
220	0x00000000	0.0
221	0x00000000	0.0
222	0x00000000	0.0
223	0x00000000	0.0
224	0x00000000	0.0
225	0x00000000	0.0
226	0x00000000	0.0
227	0x00000000	0.0
228	0x00000000	0.0
229	0x00000000	0.0
230	0x00000000	0.0
231	0x00000000	0.0
232	0x00000000	0.0
233	0x00000000	0.0
234	0x00000000	0.0
235	0x00000000	0.0
236	0x00000000	0.0
237	0x00000000	0.0
238	0x00000000	0.0
239	0x00000000	0.0
240	0x00000000	0.0
241	0x00000000	0.0
242	0x00000000	0.0
243	0x00000000	0.0
244	0x00000000	0.0
245	0x00000000	0.0
246	0x00000000	0.0
247	0x00000000	0.0
248	0x00000000	0.0
249	0x00000000	0.0
250	0x00000000	0.0
251	0x00000000	0.0
252	0x00000000	0.0
253	0x00000000	0.0
254	0x00000000	0.0
255	0x00000000	0.0

functional_1/separable_conv1d/separable_conv2d/depthwise f4 [1, 1, 9, 8]
0	0x3d0fa350	0.035067856
1	0x3e3aebd1	0.1825402
2	0xbd421480	-0.04738283
3	0xbe2f01f5	-0.1709059
4	0x3c46ed3b	0.012141521
5	0xbcbc3c9a	-0.022978116
6	0x3aa19041	0.0012326316
7	0x3c99b858	0.01876466
8	0xbda79c33	-0.081840895
9	0xbe91138d	-0.2833523
10	0xbd31fdbb	-0.043454867
11	0x3e259bd9	0.16172732
12	0xbe2d8622	-0.16945699
13	0x3d83bedc	0.06432888
14	0x3dfa4c6f	0.1222161
15	0x3c33fae5	0.010985111
16	0x3e34d1c3	0.17658143
17	0x3f06ab2f	0.52604955
18	0xbde250db	-0.11050578
19	0xbf2e3c29	-0.6806055
20	0xbe95309c	-0.2913865
21	0xbe8dc962	-0.27692705
22	0xbe337804	-0.17526251
23	0xbdb0d835	-0.08634988
24	0xbf4730fa	-0.7780911
25	0x3ddd5100	0.10806465
26	0xbe575126	-0.2102705
27	0x3d845c43	0.0646291
28	0xbefaf861	-0.49017623
29	0x3f0b5cf4	0.5443871
30	0x3edd4f12	0.43224388
31	0x3ee4a10c	0.4465412
32	0x3ea2ab3c	0.31771266
33	0xbec31d4f	-0.38108298
34	0x3f420170	0.75783443
35	0x3e859d03	0.26096353
36	0x3ec8420e	0.39112896
37	0xbeea4f0b	-0.4576343
38	0xbefecfab	-0.49767813
39	0xbf2ebe35	-0.6825898
40	0xbe602840	-0.21890354
41	0xbe94e266	-0.29078978
42	0xbd566463	-0.05234183
43	0x3d83d31f	0.064367525
44	0xbe5153fb	-0.20442192
45	0xbec58d9c	-0.38584602
46	0xbede1edc	-0.4338292
47	0xbea7035a	-0.32619745
48	0x3d81e656	0.06342761
49	0x3db4d706	0.08830075
50	0x3df2e7e9	0.118606396
51	0xbd34fc72	-0.044186063
52	0x3dc8ffa2	0.09814383
53	0x3e6fadfa	0.2340621
54	0x3e8c0f92	0.2735563
55	0x3ea67655	0.32512155
56	0xbd1caa39	-0.038248274
57	0xbdcdb0b4	-0.10043469
58	0xbd29297d	-0.041299332
59	0x3d812bea	0.06307204
60	0x3cf7c8ea	0.03024717
61	0x3ccc6229	0.02494915
62	0xbcb871d0	-0.022515208
63	0x3b4d315f	0.0031309945
64	0x3b446c82	0.0029971902
65	0x3c07f1d3	0.0082974015
66	0xbd11ed54	-0.035626724
67	0x3c7b3eb7	0.015334777
68	0x3cc73803	0.0243187
69	0xbbba2e4d	-0.005681789
70	0x3d84dbf4	0.06487265
71	0x3ccfc1ff	0.02536106

functional_1/separable_conv1d/separable_conv2d f4 [18, 1, 1, 8]
0	0x3e29986e	0.16562054
1	0xbe8a3f82	-0.27001578
2	0x3f1c9571	0.6116553
3	0x3d84bc7f	0.06481265
4	0x3da7f3a0	0.08200765
5	0xbe45a060	-0.1929946
6	0xbf0efad1	-0.55851465
7	0xbf1769e8	-0.59145975
8	0x3e8626a0	0.26201344
9	0x3d9bcc3c	0.07607314
10	0x3e10713d	0.14105697
11	0x3db94bdb	0.090476714
12	0x3fba8358	1.4571333
13	0xbafa1b98	-0.001908171
14	0x3d316f01	0.043318752
15	0x3d9bcd81	0.07607556
16	0x3bddeb16	0.006772409
17	0xbc4f8af5	-0.012667407
18	0x3b78127a	0.003785281
19	0x3c10ec0f	0.008845343
20	0x3c853904	0.016262539
21	0xbebc0896	-0.367253
22	0x3f59612f	0.84913915
23	0xbeee25a7	-0.465131
24	0x3edd4e58	0.43223834
25	0xbf49379a	-0.78600466
26	0x3e936d98	0.2879455
27	0xbe1f6a8b	-0.15567987
28	0xbe4b5537	-0.19856726
29	0xbd169aa5	-0.036768574
30	0x3e3f73b9	0.18696488
31	0x3d3f9366	0.04677143
32	0xbe4e578f	-0.20150588
33	0xbc075c0c	-0.008261692
34	0x3da9f8d8	0.08299416
35	0xbea67100	-0.32508087
36	0xbf9f8461	-1.2462274
37	0x3c3fdfb7	0.011711053
38	0xbd4176d8	-0.04723248
39	0xbd0a4c4e	-0.033764176
40	0xbfebd3a2	-1.842396
41	0x3de6e355	0.11273829
42	0x3d082514	0.033238485
43	0xbc977362	-0.018487636
44	0x3d364f37	0.04450914
45	0xbce970ab	-0.028496107
46	0xbd84309f	-0.06454586
47	0xbdd0c209	-0.10193259
48	0x3e096894	0.134188
49	0xbd932cd4	-0.07186285
50	0x3eae2699	0.34013823
51	0xbf83d7d9	-1.0300246
52	0x3ee97863	0.4559966
53	0xbe034b7d	-0.12821765
54	0x3db57d0a	0.0886174
55	0x3d2ae186	0.041718982
56	0x3e200fd4	0.15631038
57	0xbea4aa4e	-0.32161182
58	0x3e23044c	0.15919608
59	0x3d8e98e7	0.069627576
60	0xbd15b112	-0.03654582
61	0x3f2899b5	0.6585954
62	0x3ed8f2a0	0.42372608
63	0x3f320e99	0.69553524
64	0x3f7344ff	0.95027155
65	0xbd46c1a0	-0.0485245
66	0xbe8c64e8	-0.27420735
67	0x3e1b5e15	0.15172608
68	0xb8d6f722	-0.00010250347
69	0x3d425fc3	0.047454607
70	0x3c1af793	0.00945844
71	0x3ddb41f3	0.10705938
72	0xbee3de32	-0.4450546
73	0x3f89697e	1.0735319
74	0xbe1e3314	-0.15449172
75	0x3dab42ef	0.08362376
76	0x3d9ebe90	0.07751191
77	0x3d926bdd	0.071494795
78	0xbddf128d	-0.1089221
79	0x3cbd6d3b	0.023123374
80	0x3bbfed02	0.005857111
81	0xbe3d6332	-0.18494871
82	0x3f28b13f	0.65895456
83	0x3f062817	0.5240492
84	0x3ed8f7f8	0.42376685
85	0xbdac9de1	-0.084285505
86	0xbc7fde1f	-0.015616923
87	0xbd0c2270	-0.03421253
88	0xbdda2a1e	-0.106525645
89	0x3e8ee8bf	0.27911946
90	0xbdfcde1e	-0.12347053
91	0xbd98eb4d	-0.07466755
92	0x3d8a8ede	0.06765531
93	0xbf16c98e	-0.589013
94	0xbeb4b331	-0.35292962
95	0xbf497b85	-0.787041
96	0x3e326d45	0.17424496
97	0xbcc7c94f	-0.024387984
98	0xbde67eed	-0.11254678
99	0xbd12a57a	-0.035802342
100	0x3de150c4	0.11001733
101	0x3df1d636	0.118084356
102	0xbe116bed	-0.14201327
103	0xbfa401d5	-1.2813059
104	0xbc1badfa	-0.009501928
105	0x3e3c0f28	0.18365157
106	0xbf19f208	-0.60134935
107	0xbefdf422	-0.4960032
108	0xbec5e0ce	-0.38648075
109	0x3d53df09	0.051726375
110	0x3ced3093	0.028953826
111	0x3d5913ee	0.052997522
112	0x3d390c59	0.04517779
113	0x3c4f78fc	0.012663122
114	0x3b2a9a5f	0.0026031954
115	0x3db64f1f	0.0890181
116	0x3e53490e	0.20633337
117	0xbf6d00b1	-0.9257918
118	0xbeceaa39	-0.40364245
119	0x3ecd84f7	0.40140507
120	0xbeba6d55	-0.3641154
121	0xbf0b1294	-0.5432522
122	0xbf36f875	-0.71472865
123	0x3e9141c6	0.28370494
124	0xbe13ed28	-0.14445937
125	0xbce0fc57	-0.027464075
126	0x3b847d2b	0.0040432415
127	0xbc8707c2	-0.016483191
128	0x3ccd7298	0.025079057
129	0x3e4af59d	0.19820257
130	0xbde32c39	-0.11092419
131	0xbdf92902	-0.12166025
132	0xbdfbb7dc	-0.12290928
133	0xbf729b63	-0.9476835
134	0xbf2b3266	-0.66873777
135	0xbefbdf5d	-0.4919385
136	0xbe037e4d	-0.12841149
137	0x3e885386	0.26626223
138	0xbe5c2a52	-0.21500519
139	0xbc2b0f7f	-0.010440706
140	0xbd2215d3	-0.039571594
141	0x3ede54f9	0.43424204
142	0x3f8c9433	1.0982727
143	0x3f4bdb0f	0.7963113

functional_1/separable_conv1d_1/separable_conv2d/depthwise f4 [1, 1, 5, 18]
0	0x3ed808af	0.42194125
1	0x3e3558bb	0.17709629
2	0x3dc8ed21	0.09810854
3	0x3e7c0f63	0.24615245
4	0x3ddd282b	0.10798677
5	0x3dde2d8c	0.10848531
6	0xbde3a24c	-0.1111494
7	0x3c8de3cd	0.017320538
8	0xbdfee6d2	-0.12446369
9	0x3e00096d	0.12503596
10	0xbd99348d	-0.074807264
11	0xbd59f01b	-0.053207498
12	0xbe832c36	-0.25619668
13	0xbda7f23c	-0.082004994
14	0xbe289a20	-0.16465044
15	0x3c940c55	0.018072287
16	0x3e634b14	0.22196609
17	0x3e754f1b	0.23955958
18	0x3e9b8674	0.30376017
19	0x3ea34c9c	0.31894386
20	0x3e14e2a5	0.14539583
21	0x3ea38652	0.31938416
22	0xbc76b4bb	-0.015057738
23	0x3c7a2a7a	0.015268916
24	0xbe0e1e8c	-0.1387884
25	0xbda34f48	-0.07974106
26	0xbd1cac92	-0.038250513
27	0x3ba4fca5	0.0050350004
28	0xbe33c9ef	-0.175575
29	0x3e3c691e	0.18399474
30	0xbf00cd73	-0.5031349
31	0xbe9d2e46	-0.30699366
32	0xbea65c63	-0.3249236
33	0x3e497a8b	0.19675653
34	0x3ec3cd62	0.38242632
35	0x3e98edc7	0.2986891
36	0xbe663b0c	-0.22483462
37	0xbe856f5b	-0.2606152
38	0x3e72f7d7	0.23727356
39	0x3d98a0fb	0.074525796
40	0x3e700504	0.23439413
41	0xbeb8dbd3	-0.36105213
42	0x3e856ed8	0.2606113
43	0xbf04e4a8	-0.519114
44	0x3d6ef3f6	0.058338128
45	0xbd655c1d	-0.05599605
46	0x3e7e61e6	0.24842033
47	0xbf15c378	-0.58501387
48	0xbf0dae08	-0.55343676
49	0xbcac4ff7	-0.021034224
50	0xbf12239c	-0.57085586
51	0x3bd6e1de	0.006557687
52	0x3da9dbae	0.08293854
53	0xbd9f243d	-0.07770584
54	0x3e9abb90	0.30221224
55	0xbdbaef6e	-0.09127699
56	0x3d88b385	0.06674866
57	0x3de05f03	0.10955622
58	0xbe281340	-0.16413593
59	0x3ea9c34c	0.33156812
60	0x3e17c558	0.14821374
61	0xbe108e69	-0.14116825
62	0xbe620460	-0.22071981
63	0xbeca5bea	-0.3952325
64	0x3f270395	0.6523984
65	0xbebfa307	-0.37429067
66	0xbe1409f9	-0.1445693
67	0x3f043306	0.51640356
68	0xbe9f1c65	-0.3107635
69	0x3ea22df3	0.3167568
70	0xbe905d4a	-0.28196174
71	0x3e7029d5	0.23453458
72	0x3d820b62	0.06349827
73	0xbe837cb4	-0.25681078
74	0x3e3f12bb	0.18659489
75	0x3e8a71c5	0.27039924
76	0xbf267b73	-0.6503212
77	0x3f1e2afe	0.6178435
78	0x3ed14eb4	0.40880358
79	0xbe01a747	-0.12661467
80	0xbea4fa0c	-0.3222202
81	0xbf030f0e	-0.51194847
82	0xbe910bde	-0.28329366
83	0xbeb1aa9b	-0.34700474
84	0xbd612ef8	-0.054976434
85	0xbe6876c9	-0.22701563
86	0xbe2f71b7	-0.17133223
87	0x3d7fb352	0.062426873
88	0x3e96bb28	0.29439664
89	0x3e3ac793	0.18240194

functional_1/separable_conv1d_1/separable_conv2d f4 [30, 1, 1, 18]
0	0x3e37e940	0.17960072
1	0xbe92b26c	-0.2865175
2	0xbe4c881b	-0.19973795
3	0x3e2eb1a5	0.17059954
4	0x3e813721	0.25237373
5	0x3dc443be	0.09583233
6	0xbd979497	-0.07401388
7	0x3ed66ca7	0.4187977
8	0x3e728bb8	0.23686111
9	0xbe0d1567	-0.13777696
10	0x3e8c8b6a	0.27450114
11	0xbf89d338	-1.0767584
12	0xbe8537fc	-0.26019275
13	0xbe97b297	-0.2962844
14	0x3e19b2b4	0.15009576
15	0x3eac53b8	0.33657622
16	0x3dc9694d	0.09834538
17	0x3eda475d	0.4263257
18	0xbcc7eac5	-0.024403939
19	0x3e392e7c	0.18084139
20	0x3e3d8cb5	0.18510707
21	0x3e4bc631	0.19899823
22	0xbe80e5cb	-0.25175318
23	0xbea9038e	-0.33010525
24	0xbbf5ece5	-0.0075050467
25	0x3e60e975	0.21964057
26	0xbf0a5dcb	-0.54049367
27	0xbd4d8415	-0.05017479
28	0xbccc5b7e	-0.02494597
29	0xbf10485d	-0.5636042
30	0xbd33aa4b	-0.043863576
31	0xbd5032ee	-0.05082982
32	0xbf3648d8	-0.712049
33	0xbd35fdfa	-0.044431664
34	0xbedd6afa	-0.4324568
35	0x3e31faf6	0.1738089
36	0xbf474eaf	-0.77854437
37	0xbd003595	-0.0313011
38	0xbf64a016	-0.8930677
39	0xbe663bdc	-0.22483772
40	0xbe31aa1d	-0.1735005
41	0x3cc22628	0.023699835
42	0x3d258a24	0.040414944
43	0xbedeba65	-0.43501583
44	0xbe216694	-0.15761787
45	0xbda3bca1	-0.079949625
46	0x3e9228df	0.28546807
47	0xbd4b24ec	-0.04959576
48	0x3e2e1ced	0.17003222
49	0xbc05f535	-0.008176138
50	0xbd6f2640	-0.058386087
51	0xbdf4562d	-0.11930499
52	0xbdc15471	-0.09439934
53	0x3f2c4ec6	0.673077
54	0xbe423c54	-0.18968326
55	0x3e801704	0.2501756
56	0xbc84a0a3	-0.016189879
57	0x3eb2dfff	0.3493652
58	0xbd9d6ec4	-0.076871425
59	0x3da1aaf6	0.07893936
60	0xbd4380be	-0.0477302
61	0xbed50a03	-0.416092
62	0x3e38d2e4	0.18049198
63	0xbe448a2c	-0.19193333
64	0xbe201e30	-0.15636516
65	0xbe8d133e	-0.27553743
66	0xbe95d30c	-0.29262578
67	0x3ef5bbd3	0.4799486
68	0xbf0531ed	-0.52029306
69	0x3cc8e6db	0.024524143
70	0x3f03807e	0.5136794
71	0xbda40602	-0.080089584
72	0x3e27b820	0.16378832
73	0xbe0219c1	-0.12705137
74	0xbee1baab	-0.4408773
75	0xbda3a962	-0.079912916
76	0xbde9027b	-0.11377426
77	0x3c058505	0.00814939
78	0x3e0f3f28	0.13988936
79	0xbd60e1d9	-0.054902885
80	0x3dbb8bfe	0.09157561
81	0x3c490da4	0.012271319
82	0xbba79154	-0.00511376
83	0x3eb33be0	0.35006618
84	0x3f610840	0.87903214
85	0x3d41bbbf	0.04729819
86	0x3f1309ac	0.57436633
87	0x3e860bbb	0.26180825
88	0xbe5f1d57	-0.21788536
89	0x3cfb9789	0.030711906
90	0x3dd2ff1d	0.10302565
91	0x3e0469e0	0.12931013
92	0xbe3e55cf	-0.18587421
93	0xbd2f33d5	-0.04277404
94	0x3cb0bdd5	0.021574894
95	0xbdeda8c5	-0.11604456
96	0xbfb5d68c	-1.42061
97	0xbcf8c64b	-0.030367991
98	0xbea1d3cb	-0.31606898
99	0xbf1f6a0b	-0.62271184
100	0xbd3436fe	-0.043997757
101	0xbcf5d654	-0.030009426
102	0x3e16188c	0.14657801
103	0xbd871f40	-0.06597757
104	0xbbb2437d	-0.005440174
105	0x3ea71461	0.32632735
106	0x3ec31bba	0.3810709
107	0xbdc5526a	-0.0963486
108	0xbe0a299f	-0.1349244
109	0x3de240eb	0.11047538
110	0xbc8c99f5	-0.017163256
111	0xbe305f59	-0.17223872
112	0x3efa2d7a	0.4886282
113	0x3f356593	0.70858115
114	0xbc79f357	-0.015255771
115	0xbe9e270a	-0.3088916
116	0x3ec9fc71	0.3945041
117	0xbd7ea1de	-0.062166087
118	0xbea70023	-0.32617292
119	0x3e7704a2	0.24122861
120	0xbd34fc41	-0.04418588
121	0x3f0fcc04	0.5617068
122	0x3d22551d	0.03963195
123	0xbe843b01	-0.25826266
124	0xbe8d97c6	-0.27654856
125	0x3d67a74f	0.056556042
126	0x3dd82102	0.10553171
127	0x3f9b22eb	1.2120031
128	0xbe0478b4	-0.1293667
129	0x3eb3174d	0.34978715
130	0xbedfc702	-0.43706518
131	0x3ea2a9d9	0.31770208
132	0xbe0a2be0	-0.134933
133	0x3d17db75	0.037074525
134	0xbeac21a2	-0.3361941
135	0x3dd1e303	0.10248377
136	0x3da10717	0.078626804
137	0x3e087111	0.13324381
138	0xbdd6e173	-0.1049222
139	0xbe42dbbf	-0.19029139
140	0x3e8d0679	0.27544
141	0x3e77e2ca	0.24207607
142	0xbea4facd	-0.32222596
143	0xbd764a81	-0.060129646
144	0x3ecb781e	0.3974008
145	0xbe9ad8e7	-0.30243608
146	0x3e07439d	0.13209386
147	0x3c6e1ba7	0.01453296
148	0xbe4409b0	-0.1914432
149	0x3d85709e	0.06515621
150	0x3f1a140e	0.6018685
151	0xbd8b8adc	-0.06813595
152	0xbd9f4831	-0.07777441
153	0xbf214efc	-0.63011146
154	0x3f3bbcf1	0.73335177
155	0x3c9d5b58	0.019208595
156	0xbbd63880	-0.006537497
157	0x3e549be3	0.20762591
158	0xbf140c85	-0.57831603
159	0x3f14c1b6	0.5810808
160	0x3e92a51b	0.2864159
161	0xbe1dcbcc	-0.15409774
162	0x3d8807c4	0.06642106
163	0x3e8f442f	0.27981707
164	0x3e458934	0.1929062
165	0xbe879b67	-0.2648575
166	0x3ef7a1b9	0.48365572
167	0x3e9a3535	0.3011872
168	0xbf0b20d1	-0.5434695
169	0xbdf2b347	-0.11850601
170	0x3ee99b77	0.45626423
171	0x3f18cfe3	0.5969221
172	0x3e20969b	0.15682451
173	0xbdf2a21e	-0.11847328
174	0x3dd9b054	0.10629335
175	0xbec8bde5	-0.39207378
176	0x3d3cd6b2	0.046103187
177	0xbed41d78	-0.41428733
178	0xbeed8ab3	-0.46394882
179	0xbe1debb8	-0.15421951
180	0x3d1d5ff8	0.0384216
181	0xbe05869a	-0.13039628
182	0xbe2cc222	-0.16870931
183	0x3e068aa7	0.13138829
184	0x3f290abc	0.66032004
185	0xbe29b124	-0.1657148
186	0xbe3db52c	-0.18526143
187	0xbcdc68b4	-0.026905395
188	0x3e35a034	0.17736894
189	0x3f09e925	0.53871375
190	0xbdf7d9d6	-0.12102096
191	0x3dfef983	0.12449934
192	0xbf12797c	-0.5721662
193	0x3d1036f3	0.035208654
194	0xbcaec4a7	-0.021334006
195	0x3ea07796	0.31341237
196	0xbe077ebc	-0.13231939
197	0xbe2d3438	-0.16914451
198	0xbf07ec23	-0.5309469
199	0xbd84a88c	-0.0647746
200	0xbecee2fb	-0.40407547
201	0x3ec48610	0.38383532
202	0x3d387e40	0.045042276
203	0xbf111591	-0.5667353
204	0xbd8d69dc	-0.06904957
205	0x3f050765	0.5196441
206	0xbcdb824a	-0.026795525
207	0x3d18ce14	0.037305906
208	0xbe35f388	-0.17768681
209	0xbe836f01	-0.25670627
210	0xbe581280	-0.21100807
211	0x3e62757e	0.22115132
212	0xbe187667	-0.14888917
213	0xbdc3f15b	-0.09567519
214	0xbe7e8a6a	-0.24857488
215	0x3f08e8d7	0.53480285
216	0x3eb9857d	0.36234656
217	0x3e7ad663	0.24495845
218	0x3eb1839f	0.3467073
219	0x3eb19c29	0.34689453
220	0x3e2b81ad	0.16748686
221	0xbf035b9d	-0.51311666
222	0xbdf19d9d	-0.117976405
223	0x3e8c0691	0.2734876
224	0x3e1cd289	0.15314688
225	0x3e9b7303	0.30361184
226	0xbd05099a	-0.03247986
227	0xbe5ee593	-0.21767263
228	0x3e3bbe9f	0.18334435
229	0x3da1eced	0.07906518
230	0xbebe1ed0	-0.37132883
231	0xbe0c95aa	-0.13728967
232	0xbb0c646b	-0.0021422158
233	0xbeb1876b	-0.34673628
234	0x3e85f90a	0.26166564
235	0x3e1200ec	0.14258164
236	0xbead1d25	-0.33811298
237	0x3f24cd81	0.64376074
238	0xbea8d563	-0.329753
239	0x3e7dc543	0.2478228
240	0xbe7fed8d	-0.24992962
241	0x3e59f61a	0.21285287
242	0x3eadc28b	0.33937487
243	0x3f13d75b	0.5775048
244	0x3ee28dcf	0.44248816
245	0xbdb41a9b	-0.08794137
246	0xbe54fe35	-0.20800097
247	0xbe50cf61	-0.20391609
248	0xbe018f45	-0.12652309
249	0xbe708b89	-0.23490728
250	0x3ebed0bd	0.3726863
251	0xbf0d53d6	-0.5520605
252	0xbe84ae04	-0.25914013
253	0x3ceea4a2	0.029131237
254	0x3ee30c64	0.4434539
255	0xbe258ac3	-0.16166215
